…
Average actions of items: 16.142997221768262
The number of inters: 296337
The sparsity of the dataset: 99.95465569853714%
Remain Fields: ['user_id', 'item_id', 'rating', 'timestamp', 'title', 'price', 'brand', 'categories', 'sales_type', 'sales_rank', 'ent_id', 'ent_emb', 'img_id', 'img_emb']
Thu 20 Nov 2025 14:43:09 INFO  [Training]: train_batch_size = [1024] negative sampling: [None]
Thu 20 Nov 2025 14:43:09 INFO  [Evaluation]: eval_batch_size = [256] eval_args: [{'split': {'LS': 'valid_and_test'}, 'group_by': 'user', 'order': 'TO', 'mode': 'full'}]
Thu 20 Nov 2025 14:43:11 INFO  SASRecF_Denoising(
  (item_embedding): Embedding(18358, 256, padding_idx=0)
  (position_embedding): Embedding(50, 256)
  (diffusion): ModuleList(
    (0-1): 2 x GaussianDiffusion(
      (model): TransformerDNN(
        (emb_layer): Linear(in_features=10, out_features=10, bias=True)
        (input_projection): Linear(in_features=138, out_features=128, bias=True)
        (transformer_encoder): TransformerEncoder(
          (layers): ModuleList(
            (0): TransformerEncoderLayer(
              (self_attn): MultiheadAttention(
                (out_proj): NonDynamicallyQuantizableLinear(in_features=128, out_features=128, bias=True)
              )
              (linear1): Linear(in_features=128, out_features=2048, bias=True)
              (dropout): Dropout(p=0.5, inplace=False)
              (linear2): Linear(in_features=2048, out_features=128, bias=True)
              (norm1): LayerNorm((128,), eps=1e-05, elementwise_affine=True)
              (norm2): LayerNorm((128,), eps=1e-05, elementwise_affine=True)
              (dropout1): Dropout(p=0.5, inplace=False)
              (dropout2): Dropout(p=0.5, inplace=False)
            )
          )
        )
        (output_projection): Linear(in_features=128, out_features=128, bias=True)
        (drop): Dropout(p=0.5, inplace=False)
      )
      (loss_layer): Linear(in_features=128, out_features=128, bias=True)
    )
  )
  (feature_embed_layer_list): ModuleList(
    (0): Embedding(18358, 1024)
    (1): Embedding(18358, 4096)
  )
  (trm_encoder): TransformerEncoder(
    (layer): ModuleList(
      (0-2): 3 x TransformerLayer(
        (multi_head_attention): MultiHeadAttention(
          (query): Linear(in_features=256, out_features=256, bias=True)
          (key): Linear(in_features=256, out_features=256, bias=True)
          (value): Linear(in_features=256, out_features=256, bias=True)
          (attn_dropout): Dropout(p=0.3, inplace=False)
          (dense): Linear(in_features=256, out_features=256, bias=True)
          (LayerNorm): LayerNorm((256,), eps=1e-12, elementwise_affine=True)
          (out_dropout): Dropout(p=0.5, inplace=False)
        )
        (feed_forward): FeedForward(
          (dense_1): Linear(in_features=256, out_features=256, bias=True)
          (dense_2): Linear(in_features=256, out_features=256, bias=True)
          (LayerNorm): LayerNorm((256,), eps=1e-12, elementwise_affine=True)
          (dropout): Dropout(p=0.5, inplace=False)
        )
      )
    )
  )
  (concat_layer): Linear(in_features=512, out_features=256, bias=True)
  (LayerNorm): LayerNorm((256,), eps=1e-12, elementwise_affine=True)
  (dropout): Dropout(p=0.5, inplace=False)
  (loss_fct): CrossEntropyLoss()
)
Trainable parameters: 7319516
Thu 20 Nov 2025 14:48:31 INFO  epoch 0 training [time: 319.89s, train loss: 5085.3127]
Thu 20 Nov 2025 14:54:00 INFO  epoch 1 training [time: 329.13s, train loss: 2270.1681]
Thu 20 Nov 2025 14:54:38 INFO  epoch 1 evaluating [time: 38.12s, valid_score: 0.012500]
…
